STARTING KFOLD 0

_________________________________________________________________
Layer (type)                 Output Shape              Param #   
=================================================================
conv2d_1 (Conv2D)            (None, 73, 73, 64)        1216      
_________________________________________________________________
max_pooling2d_1 (MaxPooling2 (None, 36, 36, 64)        0         
_________________________________________________________________
dropout_1 (Dropout)          (None, 36, 36, 64)        0         
_________________________________________________________________
conv2d_2 (Conv2D)            (None, 34, 34, 128)       73856     
_________________________________________________________________
max_pooling2d_2 (MaxPooling2 (None, 17, 17, 128)       0         
_________________________________________________________________
dropout_2 (Dropout)          (None, 17, 17, 128)       0         
_________________________________________________________________
conv2d_3 (Conv2D)            (None, 15, 15, 128)       147584    
_________________________________________________________________
max_pooling2d_3 (MaxPooling2 (None, 7, 7, 128)         0         
_________________________________________________________________
dropout_3 (Dropout)          (None, 7, 7, 128)         0         
_________________________________________________________________
conv2d_4 (Conv2D)            (None, 5, 5, 64)          73792     
_________________________________________________________________
max_pooling2d_4 (MaxPooling2 (None, 2, 2, 64)          0         
_________________________________________________________________
dropout_4 (Dropout)          (None, 2, 2, 64)          0         
_________________________________________________________________
flatten_1 (Flatten)          (None, 256)               0         
_________________________________________________________________
dense_1 (Dense)              (None, 512)               131584    
_________________________________________________________________
dropout_5 (Dropout)          (None, 512)               0         
_________________________________________________________________
dense_2 (Dense)              (None, 256)               131328    
_________________________________________________________________
dropout_6 (Dropout)          (None, 256)               0         
_________________________________________________________________
dense_3 (Dense)              (None, 1)                 257       
=================================================================
Total params: 559,617
Trainable params: 559,617
Non-trainable params: 0
_________________________________________________________________
Train on 1442 samples, validate on 162 samples
Epoch 1/10

  32/1442 [..............................] - ETA: 1:21 - loss: 3.2799 - acc: 0.4688
  96/1442 [>.............................] - ETA: 27s - loss: 5.6979 - acc: 0.4688 
…
